data.pth (torch, 7487 bytes, 6 tensors)

l1.weight f4 [8, 97]
0	0x3e1ca39f	0.15296791
1	0xbd8caeee	-0.06869303
2	0x3e95d3aa	0.2926305
3	0xbf56def3	-0.83933944
4	0x3efbe30b	0.49196658
5	0x3ea9328c	0.33046377
6	0xbe99753d	-0.29972258
7	0x3f550441	0.83209616
8	0xbe64a432	-0.2232826
9	0x3ec0184d	0.3751854
10	0x3f525cc6	0.8217281
11	0x3ecb5770	0.39715147
12	0x3f3e8f2e	0.74437225
13	0x3f573ed8	0.84080267
14	0xbe95836b	-0.29201826
15	0xbf15e1c7	-0.58547634
16	0xbee91fa1	-0.45531943
17	0x3e3ff0e8	0.18744242
18	0xbe927a6f	-0.28609034
19	0xbef2f720	-0.47454166
20	0xbec587c7	-0.38580152
21	0xbe0c3e46	-0.1369563
22	0x3f350480	0.7070999
23	0x3f14a500	0.5806427
24	0xbe47739a	-0.19477692
25	0xbedda3fd	-0.43289176
26	0x3dd9c887	0.10633951
27	0x3f2e818b	0.68166417
28	0xbca621fc	-0.020279877
29	0xbda65516	-0.081216976
30	0x3e5f938d	0.2183363
31	0x3d7d5ae3	0.061854254
32	0x3f3a88dd	0.72865087
33	0xbf351e0f	-0.7074899
34	0x3eb6d98e	0.35712856
35	0x3f3aff2e	0.73045623
36	0xbf0ef8d6	-0.55848444
37	0xbf6e3e88	-0.93064165
38	0xbf1b6c07	-0.6071171
39	0xbf073139	-0.5280948
40	0xbdc1b29d	-0.09457896
41	0xbf31f00f	-0.69506925
42	0x3e106f59	0.14104976
43	0x3e4ae8f5	0.19815429
44	0x3d9c16b5	0.076215185
45	0x3f12a4f6	0.5728296
46	0xbe177b28	-0.14793074
47	0xbea1b3a7	-0.31582376
48	0x3ee319fe	0.44355768
49	0x3e185db1	0.1487949
50	0xbe1687ae	-0.14700195
51	0xbdcf0019	-0.101074405
52	0xbf02ba3d	-0.5106543
53	0x3f6b4856	0.9190725
54	0xbefcf9cd	-0.49409333
55	0x3f0279b4	0.50966954
56	0x3d074c78	0.03303191
57	0x3f1a6a5e	0.60318553
58	0x3ef4ece4	0.47836983
59	0x3ef80cbc	0.48447216
60	0x3ea175fc	0.31535327
61	0x3e5b0cad	0.21391554
62	0x3f28041e	0.6563128
63	0x3e02cd15	0.12773545
64	0x3dec535e	0.115393385
65	0xbea8a4d6	-0.3293826
66	0x3c106e5a	0.008815372
67	0x3ef5fc3d	0.48044005
68	0xbf2b9df0	-0.6703787
69	0x3ed53907	0.4164507
70	0xbe958312	-0.2920156
71	0xbd9b62fc	-0.07587239
72	0xbe2227e4	-0.1583553
73	0xbf022840	-0.50842667
74	0xbb624b58	-0.0034529772
75	0x3f47b7a4	0.7801459
76	0xbdaa891c	-0.08326933
77	0x3dc3ab79	0.0955419
78	0xbc86cee7	-0.01645608
79	0xbee25e2d	-0.44212475
80	0x3efb79b2	0.49116284
81	0xbf3dd91e	-0.7415942
82	0x3ede72c8	0.43446946
83	0x3f41ecee	0.7575215
84	0x3ea9bd2d	0.33152142
85	0x3f554d6a	0.8332125
86	0x3f2f13e2	0.68389714
87	0x3e7b2f29	0.24529709
88	0x3e36a555	0.17836507
89	0xbecf1247	-0.40443632
90	0xbcb3b422	-0.02193648
91	0xbdeeea8e	-0.116658315
92	0xbe9fda7e	-0.31221384
93	0x3eb82169	0.3596299
94	0xbe58273f	-0.21108721
95	0x3e9ecb43	0.3101445
96	0x3dc040db	0.0938737
97	0x3e98c7de	0.29839987
98	0xbe2e8bfc	-0.17045587
99	0x3f4d6ce7	0.80244297
100	0x3fb00397	1.3751096
101	0xbe661580	-0.22469139
102	0x3f26d99e	0.6517581
103	0x3ed6ef8d	0.41979638
104	0xbf21e1f6	-0.63235414
105	0x3f44603e	0.76709354
106	0xbe7b398f	-0.24533676
107	0xbf1e147c	-0.61750007
108	0xbd1d05b2	-0.03833551
109	0xbefa7cf9	-0.48923472
110	0xbf19f1ae	-0.601344
111	0x3f0aafb9	0.5417438
112	0x3f019ee3	0.50633067
113	0x3f131442	0.57452786
114	0x3f4441fc	0.76663184
115	0x3e76381c	0.24044842
116	0x3ef4b51e	0.4779443
117	0xbde85a7d	-0.11345384
118	0x3ef793b9	0.4835489
119	0xbb948952	-0.0045329714
120	0xbea7bcd9	-0.32761267
121	0x3edb849b	0.42874607
122	0x3e720c68	0.23637545
123	0x3f387474	0.72052693
124	0xbef30cb0	-0.47470617
125	0x3f35f039	0.71069676
126	0xbe8a751a	-0.27042466
127	0x3f091423	0.5354635
128	0x3dd4b72a	0.10386498
129	0xbf214335	-0.62993175
130	0x3f556374	0.8335488
131	0xbdaa8b9f	-0.08327412
132	0xbf030132	-0.511737
133	0x3f1bc045	0.60840255
134	0x3eb960a0	0.36206532
135	0x3f18d5c8	0.59701204
136	0x3f3434f2	0.7039329
137	0x3ea5f5e7	0.3241417
138	0x3f304556	0.688558
139	0x3e9f5e44	0.31126606
140	0x3ef5daed	0.4801859
141	0x3f2b3de9	0.6689134
142	0x3ea47f93	0.3212858
143	0xbed87459	-0.42276266
144	0xbd926b5d	-0.07149384
145	0xbe5b57fb	-0.2142028
146	0x3eb8fbb3	0.3612953
147	0x3ea87684	0.3290292
148	0x3ee22367	0.44167635
149	0x3ee7f57e	0.45304483
150	0xbee375a9	-0.44425705
151	0x3ef21b69	0.47286537
152	0x3f49b311	0.7878886
153	0x3f14e6c6	0.5816463
154	0xbe79b102	-0.2438393
155	0xbe62dcb6	-0.22154507
156	0x3e66f94a	0.22556034
157	0x3f215fca	0.6303679
158	0x3ef7f24a	0.4842704
159	0xbe2f729a	-0.17133561
160	0x3f2b21b6	0.66848314
161	0xbe711080	-0.2354145
162	0x3ef46cae	0.47739166
163	0x3f5b0cf2	0.8556663
164	0xbe9cf506	-0.30655688
165	0x3f87507e	1.0571439
166	0xbe1b7766	-0.15182266
167	0x3e8921d8	0.26783633
168	0xbea8305f	-0.32849404
169	0x3f005156	0.5012411
170	0x3df6c87e	0.120499596
171	0xbf14a305	-0.5806125
172	0x3f580d32	0.84395134
173	0xbd9cc26d	-0.07654271
174	0x3efc6fd4	0.49304068
175	0x3f2f6876	0.6851877
176	0x3e6d961b	0.23201792
177	0xbede5c51	-0.43429807
178	0x3f2849ec	0.65737796
179	0x3d60e33b	0.054904204
180	0xbf298eca	-0.66233504
181	0xbe7dae93	-0.24773626
182	0xbdd808e7	-0.10548573
183	0xbedcb928	-0.43110013
184	0xbd92a71e	-0.07160781
185	0xbdef3479	-0.1167993
186	0x3f0ecc24	0.55780244
187	0x3f0e66df	0.5562572
188	0x3f3c80af	0.73633856
189	0x3f1df3e0	0.6170025
190	0xbdd4a480	-0.103829384
191	0xbe141139	-0.14459695
192	0xbe285658	-0.16439188
193	0xbea34718	-0.31890178
194	0x3ec084e6	0.37601393
195	0x3e579e53	0.2105649
196	0xbe858647	-0.26079008
197	0xbd1301db	-0.03589044
198	0x3eceadbf	0.40366933
199	0xbca3fcb4	-0.02001796
200	0xbe9bab49	-0.30404118
201	0x3f5a8a7c	0.8536756
202	0x3da0004f	0.07812559
203	0x3f0e0f79	0.5549236
204	0x3f4acca1	0.7921849
205	0xbe003430	-0.12519908
206	0xbe1bb717	-0.15206562
207	0xbf25eb70	-0.64812374
208	0xbeaae20a	-0.3337558
209	0x3f13924b	0.576451
210	0x3e943eae	0.2895407
211	0xbe91d746	-0.28484553
212	0xbddc2347	-0.10748916
213	0xbed7b846	-0.42132777
214	0xbc26cec3	-0.010181132
215	0x3cc5932b	0.024118027
216	0x3ea678d7	0.32514068
217	0xbefab653	-0.48967227
218	0x3ecfd540	0.40592384
219	0x3f1c701b	0.6110856
220	0xbed7169d	-0.4200944
221	0x3bbebf25	0.005821126
222	0x3e2b8528	0.16750014
223	0xbc80a0ad	-0.015701616
224	0xbd200f9a	-0.03907738
225	0xbee44516	-0.44583958
226	0xbf2d1099	-0.6760345
227	0xbf15adfc	-0.58468604
228	0x3c9635c7	0.01833619
229	0xbf83de5d	-1.0302235
230	0xbf5e02dc	-0.86723113
231	0x3fc869f8	1.5657339
232	0xbf5e0018	-0.86718893
233	0xbf5bc137	-0.858417
234	0xbd807d6d	-0.06273923
235	0xbf43098b	-0.76186436
236	0x3ea64d0e	0.32480663
237	0xbd9f668b	-0.077832304
238	0x3e2cf3bd	0.16889854
239	0xbe2bbe4a	-0.16771808
240	0xbdb8c551	-0.0902201
241	0xbb48e6d0	-0.0030655153
242	0xbf14c8fe	-0.5811919
243	0x3ee4778c	0.44622457
244	0x3ea3fbac	0.32027948
245	0x3e832e45	0.25621238
246	0x3f064c72	0.52460396
247	0xbf0f92a2	-0.5608312
248	0x3f535a14	0.82559323
249	0xbe6b28c4	-0.2296477
250	0x3e87cfb2	0.26525646
251	0xbe5451d3	-0.20734338
252	0x3ef97bef	0.48727366
253	0xbef24fbf	-0.47326466
254	0x3d3a1568	0.04543057
255	0x3dc44a1a	0.09584446

l1.bias f4 [8]
0	0x3f1bb768	0.6082673
1	0x3f39f983	0.7264635
2	0x3f5e01d3	0.86721534
3	0x3f68a697	0.90879196
4	0x3f72a511	0.9478312
5	0x3f337a5e	0.7010859
6	0x3f7c0029	0.98437744
7	0x3f147095	0.57984287

l2.weight f4 [8, 8]
0	0xbec3fd00	-0.3827896
1	0x3fcc536a	1.5962956
2	0x3e1b8d12	0.15190533
3	0xbe84ae16	-0.25914067
4	0xbf0fc5cf	-0.56161207
5	0x3f3b948d	0.73273546
6	0xbe2c51c2	-0.16828063
7	0x3fb9b885	1.4509436
8	0xbf38305f	-0.7194881
9	0x3f8f27e9	1.1184055
10	0x3ed49b9a	0.41524965
11	0x3dadb34a	0.08481462
12	0x3f13a19d	0.5766848
13	0xbfb1c029	-1.3886768
14	0x3fa38017	1.2773465
15	0xbd522c13	-0.051311564
16	0x3f9c28a2	1.21999
17	0xbea76992	-0.3269773
18	0xbd80cc79	-0.06289
19	0x3f7bfba9	0.9843088
20	0xbe24b30b	-0.16083924
21	0xbf10cfb1	-0.5656691
22	0x3fc6d6eb	1.5534338
23	0xbf79e785	-0.97618896
24	0xbf0f86d9	-0.56065136
25	0xbe0c6f8e	-0.1371443
26	0x3faa3850	1.3298435
27	0x3e277c03	0.163559
28	0xbfbd672b	-1.4797109
29	0x3ead88f8	0.3389356
30	0x3f79412b	0.97365063
31	0x3fb17cea	1.3866246
32	0xbf834e93	-1.0258354
33	0x3f31ec3b	0.69501084
34	0xbf436b83	-0.76335925
35	0x3ff6d194	1.9282708
36	0x3e8e75b4	0.27824175
37	0x3f6f2ab4	0.93424535
38	0xbea014e6	-0.31265944
39	0x3dba16c0	0.090863705
40	0x3fa56727	1.2922105
41	0xbebf6d6f	-0.3738818
42	0x3ff08a45	1.8792197
43	0xbf559ec7	-0.834454
44	0x3fd64ff5	1.6743151
45	0x3f967026	1.1752975
46	0xbeee4592	-0.46537453
47	0x3f6c641c	0.92340255
48	0xbfc633fe	-1.5484617
49	0x3f8d241f	1.1026648
50	0x3f062d61	0.5241299
51	0xbed89bac	-0.42306268
52	0x3fd9b016	1.7006862
53	0xbf2587df	-0.6466045
54	0x3f980145	1.1875387
55	0xbee0e97c	-0.43928134
56	0x3fbdce9c	1.4828677
57	0x3d386c09	0.045024905
58	0xbfde528d	-1.7368942
59	0x3facf635	1.3512636
60	0xbe776184	-0.24158293
61	0x3fa19c01	1.2625734
62	0x3f826828	1.0188036
63	0x3f8740df	1.0566672

l2.bias f4 [8]
0	0x3e069552	0.13142899
1	0x3e9b5422	0.30337626
2	0x3f6a5701	0.9153901
3	0x3e1c4631	0.15261151
4	0x3eff93de	0.499175
5	0x3f18bc15	0.5966199
6	0x3f317b52	0.69328797
7	0x3f2c9b84	0.674248

l3.weight f4 [18, 8]
0	0x3eb52a7b	0.35383973
1	0xbfe02d01	-1.7513734
2	0xbf6e7c53	-0.93158454
3	0xbfcf1e02	-1.6181033
4	0x3f0c20b1	0.54737383
5	0xbf53f0bf	-0.82789224
6	0xbfb25ac2	-1.3933947
7	0x3ee35c70	0.44406462
8	0xbef12aa9	-0.4710286
9	0xbf883740	-1.0641861
10	0xbf28cef5	-0.6594079
11	0xbfa11a38	-1.2586126
12	0xbfd4eccd	-1.6634766
13	0x3ee1c261	0.44093612
14	0xbf816c24	-1.0111127
15	0x3f4e12f3	0.80497664
16	0xbfa019cc	-1.2507873
17	0x3caa79b7	0.020809991
18	0x3f4ecb7c	0.8077924
19	0xbf632fe9	-0.8874498
20	0xbfdde2aa	-1.7334797
21	0xbf488834	-0.7833283
22	0xbe739024	-0.23785454
23	0x3f0ef325	0.5583976
24	0x3eccf457	0.40030167
25	0x3f01e8b5	0.5074571
26	0x3eb9716b	0.36219344
27	0xbee41c9c	-0.44553077
28	0xbfb239e3	-1.3923916
29	0xbfe2fd55	-1.7733561
30	0x3f0f4ad6	0.55973566
31	0xbee008c5	-0.4375669
32	0xbf012a3b	-0.50455064
33	0xbe979432	-0.29605252
34	0xbe911d3f	-0.28342625
35	0xc02b837c	-2.6799002
36	0x3deccb27	0.11562186
37	0x3edc1369	0.4298356
38	0x3d9300ee	0.07177912
39	0xbec4767e	-0.38371652
40	0x3ed25a97	0.4108474
41	0xbe929d3d	-0.28635588
42	0xbf87cf19	-1.0610076
43	0xbe08274c	-0.1329624
44	0xbef06a8d	-0.46956292
45	0xbe856e74	-0.26060832
46	0x3e333a14	0.17502624
47	0xbe373744	-0.17892176
48	0xbdabc203	-0.08386614
49	0xbfb109b6	-1.3831089
50	0x3efece00	0.4976654
51	0x3e10c595	0.14137872
52	0xbc403f9e	-0.0117339175
53	0xbfc5e1f3	-1.5459579
54	0xbfb5ef31	-1.421362
55	0x3ef7a8ad	0.48370877
56	0xbe6ab7c5	-0.22921665
57	0x3e7ab85c	0.2448439
58	0x3e8ba9d7	0.27278015
59	0x3f0b89e4	0.5450728
60	0xbff63af6	-1.9236743
61	0xbe7ec08f	-0.24878143
62	0xbf1eee33	-0.62082213
63	0xbec74e18	-0.38926768
64	0x3ede8892	0.4346357
65	0xbf1b4f48	-0.6066785
66	0xbf8f660d	-1.1203018
67	0x3e5d7d14	0.21629745
68	0x3ec36c48	0.3816855
69	0xbfac7773	-1.3473953
70	0xbf5fb8b3	-0.87391204
71	0x3d0f0d44	0.03492476
72	0x3e511a5a	0.20420209
73	0x3f0b79d5	0.54482776
74	0xbfb3ebfd	-1.4056393
75	0xbfe541eb	-1.7910742
76	0xbf08e5cc	-0.5347564
77	0xbe180953	-0.14847307
78	0x3f02766f	0.50961965
79	0xbfaaf226	-1.3355148
80	0x3ce0823e	0.027405854
81	0xbff6e33d	-1.9288098
82	0xbfc85095	-1.5649592
83	0xbf55edae	-0.83565795
84	0x3f2f8576	0.6856302
85	0x3ea25dfe	0.31712335
86	0xbe8663c4	-0.2624799
87	0xbebe8b55	-0.37215677
88	0xc0082e21	-2.1278155
89	0x3e2113d8	0.15730226
90	0x3ec35612	0.38151604
91	0x3f56c5c1	0.838955
92	0xbf89c0a3	-1.0761913
93	0xc00518bc	-2.0796347
94	0x3e659736	0.22420964
95	0x3e44138a	0.19148079
96	0xbfe2735f	-1.7691458
97	0xbfdbc750	-1.71702
98	0x3ef95832	0.487001
99	0xc00f9df9	-2.244017
100	0x3f0c82cc	0.5488708
101	0xbd8d8f46	-0.06912093
102	0xbf8ff284	-1.1245885
103	0x3f0b139b	0.5432679
104	0xbf07a60a	-0.5298773
105	0x3dab6713	0.08369269
106	0x3f0d89f8	0.5528865
107	0xbff351bc	-1.9009318
108	0x3f4ee24e	0.80814064
109	0xbfb8164a	-1.4381802
110	0x3ecaffc9	0.39648274
111	0xbddab5d5	-0.10679213
112	0x3e3d12dc	0.18464226
113	0xbe36d71e	-0.17855498
114	0xbf74db2f	-0.9564695
115	0xbd033803	-0.03203584
116	0xc001d2c6	-2.0284896
117	0x3eeeadaf	0.46616885
118	0x3ee7899f	0.45222184
119	0xbfbda94f	-1.4817294
120	0xc0008dd9	-2.0086577
121	0xbffba1f8	-1.9658804
122	0x3e0c43ed	0.13697787
123	0xbfd8c58b	-1.6935285
124	0xbfd04075	-1.6269671
125	0x3f997b7a	1.1990807
126	0x3e123e7d	0.1428165
127	0xbefe5ba8	-0.49679303
128	0xbfc60b05	-1.5472113
129	0x3f0db745	0.5535777
130	0x3efe5167	0.4967148
131	0xbf816f6c	-1.0112128
132	0xbfa91e4c	-1.3212371
133	0x3c984d8c	0.018591665
134	0x3f24e453	0.64410895
135	0xbf8d3eaf	-1.1034755
136	0x3f55d304	0.8352511
137	0xbf9aabed	-1.2083718
138	0xbf9634fa	-1.1734917
139	0x3ea56e98	0.3231094
140	0xbfc4367d	-1.5329129
141	0x3eeba786	0.46026248
142	0xbf77e8b8	-0.96839476
143	0xbef044bc	-0.4692744

l3.bias f4 [18]
0	0xbe9dba69	-0.30806282
1	0xbe798e2a	-0.24370638
2	0x3e2d3024	0.16912895
3	0xbed4e80b	-0.41583285
4	0xbd529c16	-0.051418386
5	0xbf077ac9	-0.5292173
6	0x3e32b644	0.17452341
7	0x3da45af6	0.08025162
8	0x3dcb0cdf	0.09914564
9	0xbddc1243	-0.10745671
10	0xbe149f34	-0.14513856
11	0xbeb441ce	-0.35206455
12	0x3da1b761	0.07896305
13	0xbe14e9bf	-0.14542292
14	0x3e0996ae	0.13436386
15	0x3e24a28b	0.1607763
16	0x3d69e6a1	0.05710471
17	0x3db51ff9	0.08843989
